…
[2024-11-24 18:28:00.130016][INFO][dist.py:348] - [device='cuda'][rank=7/7][local_rank=7/7][node=0/0]
[2024-11-24 18:28:00.173915][INFO][dist.py:348] - [device='cuda'][rank=1/7][local_rank=1/7][node=0/0]
[2024-11-24 18:28:00.177245][INFO][dist.py:348] - [device='cuda'][rank=6/7][local_rank=6/7][node=0/0]
[2024-11-24 18:28:01.993981][INFO][dist.py:92] - 

[CONFIG]:
  • warmup=0
  • log_freq=1
  • batch_size=64
  • input_size=128
  • output_size=128
  • dtype=torch.float32
  • device=cuda
  • world_size=8
  • train_iters=100


[2024-11-24 18:28:02.052186][INFO][test_dist.py:147] - model=Network(
  (layers): Sequential(
    (0): Linear(in_features=128, out_features=1024, bias=True)
    (1): Linear(in_features=1024, out_features=512, bias=True)
    (2): Linear(in_features=512, out_features=256, bias=True)
    (3): Linear(in_features=256, out_features=128, bias=True)
    (4): Linear(in_features=128, out_features=128, bias=True)
  )
)
[2024-11-24 18:28:04.147132][INFO][test_dist.py:228] - iter=1 dt=0.003112 dtf=0.000968 dtb=0.002144 loss=1965.468994 sps=20566.694790
[2024-11-24 18:28:04.151037][INFO][test_dist.py:228] - iter=2 dt=0.001950 dtf=0.000601 dtb=0.001349 loss=1469.845215 sps=32823.076793
[2024-11-24 18:28:04.154554][INFO][test_dist.py:228] - iter=3 dt=0.001810 dtf=0.000522 dtb=0.001288 loss=1101.677979 sps=35364.696962
…
[2024-11-24 18:28:53.180782][INFO][model.py:445] - num decayed parameter tensors: 50, with 85,771,008 parameters
[2024-11-24 18:28:53.181399][INFO][model.py:449] - num non-decayed parameter tensors: 25, with 19,200 parameters
[2024-11-24 18:28:53.947613][INFO][model.py:465] - using fused AdamW: True
/home/tnguyent/wordplay/src/wordplay/trainer.py:303: FutureWarning: `torch.cuda.amp.GradScaler(args...)` is deprecated. Please use `torch.amp.GradScaler('cuda', args...)` instead.
  grad_scaler = GradScaler(
[2024-11-24 18:28:53.949788][CRITICAL][trainer.py:318] - "devid='cuda:0'"
[2024-11-24 18:28:53.961122][INFO][trainer.py:358] - • self.model=GPT(
  (transformer): ModuleDict(
    (wte): Embedding(65, 768)
    (wpe): Embedding(1024, 768)
    (drop): Dropout(p=0.0, inplace=False)
    (h): ModuleList(
      (0-11): 12 x Block(
        (ln_1): LayerNorm()
        (attn): CausalSelfAttention(
          (c_attn): Linear(in_features=768, out_features=2304, bias=False)
          (c_proj): Linear(in_features=768, out_features=768, bias=False)
          (attn_dropout): Dropout(p=0.0, inplace=False)
          (resid_dropout): Dropout(p=0.0, inplace=False)
        )
        (ln_2): LayerNorm()
        (mlp): MLP(
          (c_fc): Linear(in_features=768, out_features=3072, bias=False)
          (act_fn): GELU(approximate='none')
          (c_proj): Linear(in_features=3072, out_features=768, bias=False)
          (dropout): Dropout(p=0.0, inplace=False)
        )
      )
    )
    (ln_f): LayerNorm()
  )
  (lm_head): Linear(in_features=768, out_features=65, bias=False)
)
[2024-11-24 18:28:53.965758][INFO][trainer.py:359] - • self.grad_scaler=<torch.cuda.amp.grad_scaler.GradScaler object at 0x14762df60090>
[2024-11-24 18:28:53.966824][INFO][trainer.py:360] - • self.model_engine=DistributedDataParallel(
  (module): GPT(
    (transformer): ModuleDict(
      (wte): Embedding(65, 768)
      (wpe): Embedding(1024, 768)
      (drop): Dropout(p=0.0, inplace=False)
      (h): ModuleList(
        (0-11): 12 x Block(
          (ln_1): LayerNorm()
          (attn): CausalSelfAttention(
            (c_attn): Linear(in_features=768, out_features=2304, bias=False)
            (c_proj): Linear(in_features=768, out_features=768, bias=False)
            (attn_dropout): Dropout(p=0.0, inplace=False)
            (resid_dropout): Dropout(p=0.0, inplace=False)
          )
          (ln_2): LayerNorm()
          (mlp): MLP(
            (c_fc): Linear(in_features=768, out_features=3072, bias=False)
            (act_fn): GELU(approximate='none')
            (c_proj): Linear(in_features=3072, out_features=768, bias=False)
            (dropout): Dropout(p=0.0, inplace=False)
          )
        )
      )
      (ln_f): LayerNorm()
    )
    (lm_head): Linear(in_features=768, out_features=65, bias=False)
  )
)
[2024-11-24 18:28:53.970763][INFO][trainer.py:361] - • self.optimizer=AdamW (
Parameter Group 0
    amsgrad: False
    betas: (0.9, 0.95)
    capturable: False
    differentiable: False
    eps: 1e-08
    foreach: None
    fused: True
    lr: 0.0006
    maximize: False
    weight_decay: 0.1

Parameter Group 1
    amsgrad: False
    betas: (0.9, 0.95)
…
